…
_dot\n\nfrom data_generation.rps import download_rps\nfrom pytorched.step_by_step import StepByStep, freeze_model, print_trainable_parameters\n\nplt.style.use('fivethirtyeight')\n\n\n\nAlexNet\nLet’s try to use AlexNet model first to help us in the Rock-Paper-Scissors problem. We’ll need to load AlexNet, with it’s weights, then make a feature-extractor on our data loaders, modify the last layer, and train. Let’s get to it:\nWe can get AlexNet from torchvision.models:\n\nweights = AlexNet_Weights.IMAGENET1K_V1\nalex = alexnet(weights=weights)\nalex\n\nAlexNet(\n  (features): Sequential(\n    (0): Conv2d(3, 64, kernel_size=(11, 11), stride=(4, 4), padding=(2, 2))\n    (1): ReLU(inplace=True)\n    (2): MaxPool2d(kernel_size=3, stride=2, padding=0, dilation=1, ceil_mode=False)\n    (3): Conv2d(64, 192, kernel_size=(5, 5), stride=(1, 1), padding=(2, 2))\n    (4): ReLU(inplace=True)\n    (5): MaxPool2d(kernel_size=3, stride=2, padding=0, dilation=1, ceil_mode=False)\n    (6): Conv2d(192, 384, kernel_size=(3, 3), stride=(1, 1), padding=(1, 1))\n    (7): ReLU(inplace=True)\n    (8): Conv2d(384, 256, kernel_size=(3, 3), stride=(1, 1), padding=(1, 1))\n    (9): ReLU(inplace=True)\n    (10): Conv2d(256, 256, kernel_size=(3, 3), stride=(1, 1), padding=(1, 1))\n    (11): ReLU(inplace=True)\n    (12): MaxPool2d(kernel_size=3, stride=2, padding=0, dilation=1, ceil_mode=False)\n  )\n  (avgpool): AdaptiveAvgPool2d(output_size=(6, 6))\n  (classifier): Sequential(\n    (0): Dropout(p=0.5, inplace=False)\n    (1): Linear(in_features=9216, out_features=4096, bias=True)\n    (2): ReLU(inplace=True)\n    (3): Dropout(p=0.5, inplace=False)\n    (4): Linear(in_features=4096, out_features=4096, bias=True)\n    (5): ReLU(inplace=True)\n    (6): Linear(in_features=4096, out_features=1000, bias=True)\n  )\n)\n\n\nWe need an original transform:\n\ntransform = weights.transforms()\n\nLet’s now create new data loaders based on this transform:\n\n\nCode\ndownload_rps()\n\n\n\ntrain_dataset = ImageFolder(root='rps', transform=transform)\nval_dataset = ImageFolder(root='rps-test-set', transform=transform)\n\n\ntrain_dataset.classes\n\n['paper', 'rock',
…
eights.transforms()\ntrain_dataset = ImageFolder(root='rps', transform=transform)\nval_dataset = ImageFolder(root='rps-test-set', transform=transform)\ntrain_loader = DataLoader(train_dataset, 16, True)\nval_loader = DataLoader(val_dataset, 16)\n\n\ntransform\n\nImageClassification(\n    crop_size=[299]\n    resize_size=[342]\n    mean=[0.485, 0.456, 0.406]\n    std=[0.229, 0.224, 0.225]\n    interpolation=InterpolationMode.BILINEAR\n)\n\n\nnext we set the model and freeze it:\n\ninception = inception_v3(weights=weights)\n\n\ninception\n\nInception3(\n  (Conv2d_1a_3x3): BasicConv2d(\n    (conv): Conv2d(3, 32, kernel_size=(3, 3), stride=(2, 2), bias=False)\n    (bn): BatchNorm2d(32, eps=0.001, momentum=0.1, affine=True, track_running_stats=True)\n  )\n  (Conv2d_2a_3x3): BasicConv2d(\n    (conv): Conv2d(32, 32, kernel_size=(3, 3), stride=(1, 1), bias=False)\n    (bn): BatchNorm2d(32, eps=0.001, momentum=0.1, affine=True, track_running_stats=True)\n  )\n  (Conv2d_2b_3x3): BasicConv2d(\n    (conv): Conv2d(32, 64, kernel_size=(3, 3), stride=(1, 1), padding=(1, 1), bias=False)\n    (bn): BatchNorm2d(64, eps=0.001, momentum=0.1, affine=True, track_running_stats=True)\n  )\n  (maxpool1): MaxPool2d(kernel_size=3, stride=2, padding=0, dilation=1, ceil_mode=False)\n  (Conv2d_3b_1x1): BasicConv2d(\n    (conv): Conv2d(64, 80, kernel_size=(1, 1), stride=(1, 1), bias=False)\n    (bn): BatchNorm2d(80, eps=0.001, momentum=0.1, affine=True, track_running_stats=True)\n  )\n  (Conv2d_4a_3x3): BasicConv2d(\n    (conv): Conv2d(80, 192, kernel_size=(3, 3), stride=(1, 1), bias=False)\n    (bn): BatchNorm2d(192, eps=0.001, momentum=0.1, affine=True, track_running_stats=True)\n  )\n  (maxpool2): MaxPool2d(kernel_size=3, stride=2, padding=0, dilation=1, ceil_mode=False)\n  (Mixed_5b): InceptionA(\n    (branch1x1): BasicConv2d(\n      (conv): Conv2d(192, 64, kernel_size=(1, 1), stride=(1, 1), bias=False)\n      (bn): BatchNorm2d(64, eps=0.001, momentum=0.1, affine=True, track_running_stats=True)\n    )\n    (branch5x5_1): BasicConv2d(\n      (conv): Conv2d(192, 48, kernel_size=(1, 1), stride=(1, 1), bias=False)\n      (bn): BatchNorm2d(48, eps=0.001, momentum=0.1, affine=True, track_running_stats=True)\n    )\n    (branch5x5_2): BasicConv2d(\n      (conv): Conv2d(48, 64, kernel_size=(5, 5), stride=(1, 1), padding=(2, 2), bias=False)\n      (bn): BatchNorm2d(64, eps=0.001, momentum=0.1, affine=True, track_running_stats=True)\n    )\n    (branch3x3dbl_1): BasicConv2d(\n      (conv): Conv2d(192, 64, kernel_size=(1, 1), stride=(1, 1), bias=False)\n      (bn): BatchNorm2d(64, eps=0.001, momentum=0.1, affine=True, track_running_stats=True)\n    )\n    (branch3x3dbl_2): BasicConv2d(\n      (conv): Conv2d(64, 96, kernel_size=(3, 3), stride=(1, 1), padding=(1, 1), bias=False)\n      (bn): BatchNorm2d(96, eps=0.001, momentum=0.1, affine=True, track_running_stats=True)\n    )\n    (branch3x3dbl_3): BasicConv2d(\n      (conv): Conv2d(96, 96, kernel_size=(3, 3), stride=(1, 1), padding=(1, 1), bias=False)\n      (bn): BatchNorm2d(96, eps=0.001, momentum=0.1, affine=True, track_running_stats=True)\n    )\n    (branch_pool): BasicConv2d(\n      (conv): Conv2d(192, 32, kernel_size=(1, 1), stride=(1, 1), bias=False)\n      (bn): BatchNorm2d(32, eps=0.001, momentum=0.1, affine=True, track_running_stats=True)\n    )\n  )\n  (Mixed_5c): InceptionA(\n    (branch1x1): BasicConv2d(\n      (conv): Conv2d(256, 64, kernel_size=(1, 1), stride=(1, 1), bias=False)\n      (bn): BatchNorm2d(64, eps=0.001, momentum=0.1, affine=True, track_running_stats=True)\n    )\n    (branch5x5_1): BasicConv2d(\n      (conv): Conv2d(256, 48, kernel_size=(1, 1), stride=(1, 1), bias=False)\n      (bn): BatchNorm2d(48, eps=0.001, momentum=0.1, affine=True, track_running_stats=True)\n    )\n    (branch5x5_2): BasicConv2d(\n      (conv): Conv2d(48, 64, kernel_size=(5, 5), stride=(1, 1), padding=(2, 2), bias=False)\n      (bn): BatchNorm2d(64, eps=0.001, momentum=0.1, affine=True, track_running_stats=True)\n    )\n    (branch3x3dbl_1): BasicConv2d(\n      (conv): Conv2d(256, 64, kernel_size=(1, 1), stride=(1, 1), bias=False)\n      (bn): BatchNorm2d(64, eps=0.001, momentum=0.1, affine=True, track_running_stats=True)\n    )\n    (branch3x3dbl_2): BasicConv2d(\n      (conv): Conv2d(64, 96, kernel_size=(3, 3), stride=(1, 1), padding=(1, 1), bias=False)\n      (bn): BatchNorm2d(96, eps=0.001, momentum=0.1, affine=True, track_running_stats=True)\n    )\n    (branch3x3dbl_3): BasicConv2d(\n      (conv): Conv2d(96, 96, kernel_size=(3, 3), stride=(1, 1), padding=(1, 1), bias=False)\n      (bn): BatchNorm2d(96, eps=0.001, momentum=0.1, affine=True, track_running_stats=True)\n    )\n    (branch_pool): BasicConv2d(\n      (conv): Conv2d(256, 64, kernel_size=(1, 1), stride=(1, 1), bias=False)\n      (bn): BatchNorm2d(64, eps=0.001, momentum=0.1, affine=True, track_running_stats=True)\n    )\n  )\n  (Mixed_5d): InceptionA(\n    (branch1x1): BasicConv2d(\n      (conv): Conv2d(288, 64, kernel_size=(1, 1), stride=(1, 1), bias=False)\n      (bn): BatchNorm2d(64, eps=0.001, momentum=0.1, affine=True, track_running_stats=True)\n    )\n    (branch5x5_1): BasicConv2d(\n      (conv): Conv2d(288, 48, kernel_size=(1, 1), stride=(1, 1), bias=False)\n      (bn): BatchNorm2d(48, eps=0.001, momentum=0.1, affine=True, track_running_stats=True)\n    )\n    (branch5x5_2): BasicConv2d(\n      (conv): Conv2d(48, 64, kernel_size=(5, 5), stride=(1, 1), padding=(2, 2), bias=False)\n      (bn): BatchNorm2d(64, eps=0.001, momentum=0.1, affine=True, track_running_stats=True)\n    )\n    (branch3x3dbl_1): BasicConv2d(\n      (conv): Conv2d(288, 64, kernel_size=(1, 1), stride=(1, 1), bias=False)\n      (bn): BatchNorm2d(64, eps=0.001, momentum=0.1, affine=True, track_running_stats=True)\n    )\n    (branch3x3dbl_2): BasicConv2d(\n      (conv): Conv2d(64, 96, kernel_size=(3, 3), stride=(1, 1), padding=(1, 1), bias=False)\n      (bn): BatchNorm2d(96, eps=0.001, momentum=0.1, affine=True, track_running_stats=True)\n    )\n    (branch3x3dbl_3): BasicConv2d(\n      (conv): Conv2d(96, 96, kernel_size=(3, 3), stride=(1, 1), padding=(1, 1), bias=False)\n      (bn): BatchNorm2d(96, eps=0.001, momentum=0.1, affine=True, track_running_stats=True)\n    )\n    (branch_pool): BasicConv2d(\n      (conv): Conv2d(288, 64, kernel_size=(1, 1), stride=(1, 1), bias=False)\n      (bn): BatchNorm2d(64, eps=0.001, momentum=0.1, affine=True, track_running_stats=True)\n    )\n  )\n  (Mixed_6a): InceptionB(\n    (branch3x3): BasicConv2d(\n      (conv): Conv2d(288, 384, kernel_size=(3, 3), stride=(2, 2), bias=False)\n      (bn): BatchNorm2d(384, eps=0.001, momentum=0.1, affine=True, track_running_stats=True)\n    )\n    (branch3x3dbl_1): BasicConv2d(\n      (conv): Conv2d(288, 64, kernel_size=(1, 1), stride=(1, 1), bias=False)\n      (bn): BatchNorm2d(64, eps=0.001, momentum=0.1, affine=True, track_running_stats=True)\n    )\n    (branch3x3dbl_2): BasicConv2d(\n      (conv): Conv2d(64, 96, kernel_size=(3, 3), stride=(1, 1), padding=(1, 1), bias=False)\n      (bn): BatchNorm2d(96, eps=0.001, momentum=0.1, affine=True, track_running_stats=True)\n    )\n    (branch3x3dbl_3): BasicConv2d(\n      (conv): Conv2d(96, 96, kernel_size=(3, 3), stride=(2, 2), bias=False)\n      (bn): BatchNorm2d(96, eps=0.001, momentum=0.1, affine=True, track_running_stats=True)\n    )\n  )\n  (Mixed_6b): InceptionC(\n    (branch1x1): BasicConv2d(\n      (conv): Conv2d(768, 192, kernel_size=(1, 1), stride=(1, 1), bias=False)\n      (bn): BatchNorm2d(192, eps=0.001, momentum=0.1, affine=True, track_running_stats=True)\n    )\n    (branch7x7_1): BasicConv2d(\n      (conv): Conv2d(768, 128, kernel_size=(1, 1), stride=(1, 1), bias=False)\n      (bn): BatchNorm2d(128, eps=0.001, momentum=0.1, affine=True, track_running_stats=True)\n    )\n    (branch7x7_2): BasicConv2d(\n      (conv): Conv2d(128, 128, kernel_size=(1, 7), stride=(1, 1), padding=(0, 3), bias=False)\n      (bn): BatchNorm2d(128, eps=0.001, momentum=0.1, affine=True, track_running_stats=True)\n    )\n    (branch7x7_3): BasicConv2d(\n      (conv): Conv2d(128, 192, kernel_size=(7, 1), stride=(1, 1), padding=(3, 0), bias=False)\n      (bn): BatchNorm2d(192, eps=0.001, momentum=0.1, affine=True, track_running_stats=True)\n    )\n    (branch7x7dbl_1): BasicConv2d(\n      (conv): Conv2d(768, 128, kernel_size=(1, 1), stride=(1, 1), bias=False)\n      (bn): BatchNorm2d(128, eps=0.001, momentum=0.1, affine=True, track_running_stats=True)\n    )\n    (branch7x7dbl_2): BasicConv2d(\n      (conv): Conv2d(128, 128, kernel_size=(7, 1), stride=(1, 1), padding=(3, 0), bias=False)\n      (bn): BatchNorm2d(128, eps=0.001, momentum=0.1, affine=True, track_running_stats=True)\n    )\n    (branch7x7dbl_3): BasicConv2d(\n      (conv): Conv2d(128, 128, kernel_size=(1, 7), stride=(1, 1), padding=(0, 3), bias=False)\n      (bn): BatchNorm2d(128, eps=0.001, momentum=0.1, affine=True, track_running_stats=True)\n    )\n    (branch7x7dbl_4): BasicConv2d(\n      (conv): Conv2d(128, 128, kernel_size=(7, 1), stride=(1, 1), padding=(3, 0), bias=False)\n      (bn): BatchNorm2d(128, eps=0.001, momentum=0.1, affine=True, track_running_stats=True)\n    )\n    (branch7x7dbl_5): BasicConv2d(\n      (conv): Conv2d(128, 192, kernel_size=(1, 7), stride=(1, 1), padding=(0, 3), bias=False)\n      (bn): BatchNorm2d(192, eps=0.001, momentum=0.1, affine=True, track_running_stats=True)\n    )\n    (branch_pool): BasicConv2d(\n      (conv): Conv2d(768, 192, kernel_size=(1, 1), stride=(1, 1), bias=False)\n      (bn): BatchNorm2d(192, eps=0.001, momentum=0.1, affine=True, track_running_stats=True)\n    )\n  )\n  (Mixed_6c): InceptionC(\n    (branch1x1): BasicConv2d(\n      (conv): Conv2d(768, 192, kernel_size=(1, 1), stride=(1, 1), bias=False)\n      (bn): BatchNorm2d(192, eps=0.001, momentum=0.1, affine=True, track_running_stats=True)\n    )\n    (branch7x7_1): BasicConv2d(\n      (conv): Conv2d(768, 160, kernel_size=(1, 1), stride=(1, 1), bias=False)\n      (bn): BatchNorm2d(160, eps=0.001, momentum=0.1, affine=True, track_running_stats=True)\n    )\n    (branch7x7_2): BasicConv2d(\n      (conv): Conv2d(160, 160, kernel_size=(1, 7), stride=(1, 1), padding=(0, 3), bias=False)\n      (bn): BatchNorm2d(160, eps=0.001, momentum=0.1, affine=True, track_running_stats=True)\n    )\n    (branch7x7_3): BasicConv2d(\n      (conv): Conv2d(160, 192, kernel_size=(7, 1), stride=(1, 1), padding=(3, 0), bias=False)\n      (bn): BatchNorm2d(192, eps=0.001, momentum=0.1, affine=True, track_running_stats=True)\n    )\n    (branch7x7dbl_1): BasicConv2d(\n      (conv): Conv2d(768, 160, kernel_size=(1, 1), stride=(1, 1), bias=False)\n      (bn): BatchNorm2d(160, eps=0.001, momentum=0.1, affine=True, track_running_stats=True)\n    )\n    (branch7x7dbl_2): BasicConv2d(\n      (conv): Conv2d(160, 160, kernel_size=(7, 1), stride=(1, 1), padding=(3, 0), bias=False)\n      (bn): BatchNorm2d(160, eps=0.001, momentum=0.1, affine=True, track_running_stats=True)\n    )\n    (branch7x7dbl_3): BasicConv2d(\n      (conv): Conv2d(160, 160, kernel_size=(1, 7), stride=(1, 1), padding=(0, 3), bias=False)\n      (bn): BatchNorm2d(160, eps=0.001, momentum=0.1, affine=True, track_running_stats=True)\n    )\n    (branch7x7dbl_4): BasicConv2d(\n      (conv): Conv2d(160, 160, kernel_size=(7, 1), stride=(1, 1), padding=(3, 0), bias=False)\n      (bn): BatchNorm2d(160, eps=0.001, momentum=0.1, affine=True, track_running_stats=True)\n    )\n    (branch7x7dbl_5): BasicConv2d(\n      (conv): Conv2d(160, 192, kernel_size=(1, 7), stride=(1, 1), padding=(0, 3), bias=False)\n      (bn): BatchNorm2d(192, eps=0.001, momentum=0.1, affine=True, track_running_stats=True)\n    )\n    (branch_pool): BasicConv2d(\n      (conv): Conv2d(768, 192, kernel_size=(1, 1), stride=(1, 1), bias=False)\n      (bn): BatchNorm2d(192, eps=0.001, momentum=0.1, affine=True, track_running_stats=True)\n    )\n  )\n  (Mixed_6d): InceptionC(\n    (branch1x1): BasicConv2d(\n      (conv): Conv2d(768, 192, kernel_size=(1, 1), stride=(1, 1), bias=False)\n      (bn): BatchNorm2d(192, eps=0.001, momentum=0.1, affine=True, track_running_stats=True)\n    )\n    (branch7x7_1): BasicConv2d(\n      (conv): Conv2d(768, 160, kernel_size=(1, 1), stride=(1, 1), bias=False)\n      (bn): BatchNorm2d(160, eps=0.001, momentum=0.1, affine=True, track_running_stats=True)\n    )\n    (branch7x7_2): BasicConv2d(\n      (conv): Conv2d(160, 160, kernel_size=(1, 7), stride=(1, 1), padding=(0, 3), bias=False)\n      (bn): BatchNorm2d(160, eps=0.001, momentum=0.1, affine=True, track_running_stats=True)\n    )\n    (branch7x7_3): BasicConv2d(\n      (conv): Conv2d(160, 192, kernel_size=(7, 1), stride=(1, 1), padding=(3, 0), bias=False)\n      (bn): BatchNorm2d(192, eps=0.001, momentum=0.1, affine=True, track_running_stats=True)\n    )\n    (branch7x7dbl_1): BasicConv2d(\n      (conv): Conv2d(768, 160, kernel_size=(1, 1), stride=(1, 1), bias=False)\n      (bn): BatchNorm2d(160, eps=0.001, momentum=0.1, affine=True, track_running_stats=True)\n    )\n    (branch7x7dbl_2): BasicConv2d(\n      (conv): Conv2d(160, 160, kernel_size=(7, 1), stride=(1, 1), padding=(3, 0), bias=False)\n      (bn): BatchNorm2d(160, eps=0.001, momentum=0.1, affine=True, track_running_stats=True)\n    )\n    (branch7x7dbl_3): BasicConv2d(\n      (conv): Conv2d(160, 160, kernel_size=(1, 7), stride=(1, 1), padding=(0, 3), bias=False)\n      (bn): BatchNorm2d(160, eps=0.001, momentum=0.1, affine=True, track_running_stats=True)\n    )\n    (branch7x7dbl_4): BasicConv2d(\n      (conv): Conv2d(160, 160, kernel_size=(7, 1), stride=(1, 1), padding=(3, 0), bias=False)\n      (bn): BatchNorm2d(160, eps=0.001, momentum=0.1, affine=True, track_running_stats=True)\n    )\n    (branch7x7dbl_5): BasicConv2d(\n      (conv): Conv2d(160, 192, kernel_size=(1, 7), stride=(1, 1), padding=(0, 3), bias=False)\n      (bn): BatchNorm2d(192, eps=0.001, momentum=0.1, affine=True, track_running_stats=True)\n    )\n    (branch_pool): BasicConv2d(\n      (conv): Conv2d(768, 192, kernel_size=(1, 1), stride=(1, 1), bias=False)\n      (bn): BatchNorm2d(192, eps=0.001, momentum=0.1, affine=True, track_running_stats=True)\n    )\n  )\n  (Mixed_6e): InceptionC(\n    (branch1x1): BasicConv2d(\n      (conv): Conv2d(768, 192, kernel_size=(1, 1), stride=(1, 1), bias=False)\n      (bn): BatchNorm2d(192, eps=0.001, momentum=0.1, affine=True, track_running_stats=True)\n    )\n    (branch7x7_1): BasicConv2d(\n      (conv): Conv2d(768, 192, kernel_size=(1, 1), stride=(1, 1), bias=False)\n      (bn): BatchNorm2d(192, eps=0.001, momentum=0.1, affine=True, track_running_stats=True)\n    )\n    (branch7x7_2): BasicConv2d(\n      (conv): Conv2d(192, 192, kernel_size=(1, 7), stride=(1, 1), padding=(0, 3), bias=False)\n      (bn): BatchNorm2d(192, eps=0.001, momentum=0.1, affine=True, track_running_stats=True)\n    )\n    (branch7x7_3): BasicConv2d(\n      (conv): Conv2d(192, 192, kernel_size=(7, 1), stride=(1, 1), padding=(3, 0), bias=False)\n      (bn): BatchNorm2d(192, eps=0.001, momentum=0.1, affine=True, track_running_stats=True)\n    )\n    (branch7x7dbl_1): BasicConv2d(\n      (conv): Conv2d(768, 192, kernel_size=(1, 1), stride=(1, 1), bias=False)\n      (bn): BatchNorm2d(192, eps=0.001, momentum=0.1, affine=True, track_running_stats=True)\n    )\n    (branch7x7dbl_2): BasicConv2d(\n      (conv): Conv2d(192, 192, kernel_size=(7, 1), stride=(1, 1), padding=(3, 0), bias=False)\n      (bn): BatchNorm2d(192, eps=0.001, momentum=0.1, affine=True, track_running_stats=True)\n    )\n    (branch7x7dbl_3): BasicConv2d(\n      (conv): Conv2d(192, 192, kernel_size=(1, 7), stride=(1, 1), padding=(0, 3), bias=False)\n      (bn): BatchNorm2d(192, eps=0.001, momentum=0.1, affine=True, track_running_stats=True)\n    )\n    (branch7x7dbl_4): BasicConv2d(\n      (conv): Conv2d(192, 192, kernel_size=(7, 1), stride=(1, 1), padding=(3, 0), bias=False)\n      (bn): BatchNorm2d(192, eps=0.001, momentum=0.1, affine=True, track_running_stats=True)\n    )\n    (branch7x7dbl_5): BasicConv2d(\n      (conv): Conv2d(192, 192, kernel_size=(1, 7), stride=(1, 1), padding=(0, 3), bias=False)\n      (bn): BatchNorm2d(192, eps=0.001, momentum=0.1, affine=True, track_running_stats=True)\n    )\n    (branch_pool): BasicConv2d(\n      (conv): Conv2d(768, 192, kernel_size=(1, 1), stride=(1, 1), bias=False)\n      (bn): BatchNorm2d(192, eps=0.001, momentum=0.1, affine=True, track_running_stats=True)\n    )\n  )\n  (AuxLogits): InceptionAux(\n    (conv0): BasicConv2d(\n      (conv): Conv2d(768, 128, kernel_size=(1, 1), stride=(1, 1), bias=False)\n      (bn): BatchNorm2d(128, eps=0.001, momentum=0.1, affine=True, track_running_stats=True)\n    )\n    (conv1): BasicConv2d(\n      (conv): Conv2d(128, 768, kernel_size=(5, 5), stride=(1, 1), bias=False)\n      (bn): BatchNorm2d(768, eps=0.001, momentum=0.1, affine=True, track_running_stats=True)\n    )\n    (fc): Linear(in_features=768, out_features=1000, bias=True)\n  )\n  (Mixed_7a): InceptionD(\n    (branch3x3_1): BasicConv2d(\n      (conv): Conv2d(768, 192, kernel_size=(1, 1), stride=(1, 1), bias=False)\n      (bn): BatchNorm2d(192, eps=0.001, momentum=0.1, affine=True, track_running_stats=True)\n    )\n    (branch3x3_2): BasicConv2d(\n      (conv): Conv2d(192, 320, kernel_size=(3, 3), stride=(2, 2), bias=False)\n      (bn): BatchNorm2d(320, eps=0.001, momentum=0.1, affine=True, track_running_stats=True)\n    )\n    (branch7x7x3_1): BasicConv2d(\n      (conv): Conv2d(768, 192, kernel_size=(1, 1), stride=(1, 1), bias=False)\n      (bn): BatchNorm2d(192, eps=0.001, momentum=0.1, affine=True, track_running_stats=True)\n    )\n    (branch7x7x3_2): BasicConv2d(\n      (conv): Conv2d(192, 192, kernel_size=(1, 7), stride=(1, 1), padding=(0, 3), bias=False)\n      (bn): BatchNorm2d(192, eps=0.001, momentum=0.1, affine=True, track_running_stats=True)\n    )\n    (branch7x7x3_3): BasicConv2d(\n      (conv): Conv2d(192, 192, kernel_size=(7, 1), stride=(1, 1), padding=(3, 0), bias=False)\n      (bn): BatchNorm2d(192, eps=0.001, momentum=0.1, affine=True, track_running_stats=True)\n    )\n    (branch7x7x3_4): BasicConv2d(\n      (conv): Conv2d(192, 192, kernel_size=(3, 3), stride=(2, 2), bias=False)\n      (bn): BatchNorm2d(192, eps=0.001, momentum=0.1, affine=True, track_running_stats=True)\n    )\n  )\n  (Mixed_7b): InceptionE(\n    (branch1x1): BasicConv2d(\n      (conv): Conv2d(1280, 320, kernel_size=(1, 1), stride=(1, 1), bias=False)\n      (bn): BatchNorm2d(320, eps=0.001, momentum=0.1, affine=True, track_running_stats=True)\n    )\n    (branch3x3_1): BasicConv2d(\n      (conv): Conv2d(1280, 384, kernel_size=(1, 1), stride=(1, 1), bias=False)\n      (bn): BatchNorm2d(384, eps=0.001, momentum=0.1, affine=True, track_running_stats=True)\n    )\n    (branch3x3_2a): BasicConv2d(\n      (conv): Conv2d(384, 384, kernel_size=(1, 3), stride=(1, 1), padding=(0, 1), bias=False)\n      (bn): BatchNorm2d(384, eps=0.001, momentum=0.1, affine=True, track_running_stats=True)\n    )\n    (branch3x3_2b): BasicConv2d(\n      (conv): Conv2d(384, 384, kernel_size=(3, 1), stride=(1, 1), padding=(1, 0), bias=False)\n      (bn): BatchNorm2d(384, eps=0.001, momentum=0.1, affine=True, track_running_stats=True)\n    )\n    (branch3x3dbl_1): BasicConv2d(\n      (conv): Conv2d(1280, 448, kernel_size=(1, 1), stride=(1, 1), bias=False)\n      (bn): BatchNorm2d(448, eps=0.001, momentum=0.1, affine=True, track_running_stats=True)\n    )\n    (branch3x3dbl_2): BasicConv2d(\n      (conv): Conv2d(448, 384, kernel_size=(3, 3), stride=(1, 1), padding=(1, 1), bias=False)\n      (bn): BatchNorm2d(384, eps=0.001, momentum=0.1, affine=True, track_running_stats=True)\n    )\n    (branch3x3dbl_3a): BasicConv2d(\n      (conv): Conv2d(384, 384, kernel_size=(1, 3), stride=(1, 1), padding=(0, 1), bias=False)\n      (bn): BatchNorm2d(384, eps=0.001, momentum=0.1, affine=True, track_running_stats=True)\n    )\n    (branch3x3dbl_3b): BasicConv2d(\n      (conv): Conv2d(384, 384, kernel_size=(3, 1), stride=(1, 1), padding=(1, 0), bias=False)\n      (bn): BatchNorm2d(384, eps=0.001, momentum=0.1, affine=True, track_running_stats=True)\n    )\n    (branch_pool): BasicConv2d(\n      (conv): Conv2d(1280, 192, kernel_size=(1, 1), stride=(1, 1), bias=False)\n      (bn): BatchNorm2d(192, eps=0.001, momentum=0.1, affine=True, track_running_stats=True)\n    )\n  )\n  (Mixed_7c): InceptionE(\n    (branch1x1): BasicConv2d(\n      (conv): Conv2d(2048, 320, kernel_size=(1, 1), stride=(1, 1), bias=False)\n      (bn): BatchNorm2d(320, eps=0.001, momentum=0.1, affine=True, track_running_stats=True)\n    )\n    (branch3x3_1): BasicConv2d(\n      (conv): Conv2d(2048, 384, kernel_size=(1, 1), stride=(1, 1), bias=False)\n      (bn): BatchNorm2d(384, eps=0.001, momentum=0.1, affine=True, track_running_stats=True)\n    )\n    (branch3x3_2a): BasicConv2d(\n      (conv): Conv2d(384, 384, kernel_size=(1, 3), stride=(1, 1), padding=(0, 1), bias=False)\n      (bn): BatchNorm2d(384, eps=0.001, momentum=0.1, affine=True, track_running_stats=True)\n    )\n    (branch3x3_2b): BasicConv2d(\n      (conv): Conv2d(384, 384, kernel_size=(3, 1), stride=(1, 1), padding=(1, 0), bias=False)\n      (bn): BatchNorm2d(384, eps=0.001, momentum=0.1, affine=True, track_running_stats=True)\n    )\n    (branch3x3dbl_1): BasicConv2d(\n      (conv): Conv2d(2048, 448, kernel_size=(1, 1), stride=(1, 1), bias=False)\n      (bn): BatchNorm2d(448, eps=0.001, momentum=0.1, affine=True, track_running_stats=True)\n    )\n    (branch3x3dbl_2): BasicConv2d(\n      (conv): Conv2d(448, 384, kernel_size=(3, 3), stride=(1, 1), padding=(1, 1), bias=False)\n      (bn): BatchNorm2d(384, eps=0.001, momentum=0.1, affine=True, track_running_stats=True)\n    )\n    (branch3x3dbl_3a): BasicConv2d(\n      (conv): Conv2d(384, 384, kernel_size=(1, 3), stride=(1, 1), padding=(0, 1), bias=False)\n      (bn): BatchNorm2d(384, eps=0.001, momentum=0.1, affine=True, track_running_stats=True)\n    )\n    (branch3x3dbl_3b): BasicConv2d(\n      (conv): Conv2d(384, 384, kernel_size=(3, 1), stride=(1, 1), padding=(1, 0), bias=False)\n      (bn): BatchNorm2d(384, eps=0.001, momentum=0.1, affine=True, track_running_stats=True)\n    )\n    (branch_pool): BasicConv2d(\n      (conv): Conv2d(2048, 192, kernel_size=(1, 1), stride=(1, 1), bias=False)\n      (bn): BatchNorm2d(192, eps=0.001, momentum=0.1, affine=True, track_running_stats=True)\n    )\n  )\n  (avgpool): AdaptiveAvgPool2d(output_size=(1, 1))\n  (dropout): Dropout(p=0.5, inplace=False)\n  (fc): Linear(in_features=2048, out_features=1000, bias=True)\n)\n\n\n\ninception = inception_v3(weights=weights)\nfreeze_model(inception)\nprint_trainable_parameters(inception)\n\nNo trainable parameters.\n\n\nreplace the top layers per advice:\n\ninception.fc = nn.Linear(2048, 3)\ninception.AuxLogits.fc = nn.Linear(768, 3)\nprint_trainable_parameters(inception)\n\nAuxLogits.fc.weight\nAuxLogits.fc.bias\nfc.we
…
cated since 0.13 and will be removed in 0.15, please use 'weights' instead.\n  warnings.warn(\n/usr/local/lib/python3.9/dist-packages/torchvision/models/_utils.py:223: UserWarning: Arguments other than a weight enum or `None` for 'weights' are deprecated since 0.13 and will be removed in 0.15. The current behavior is equivalent to passing `weights=ResNet18_Weights.IMAGENET1K_V1`. You can also use `weights=ResNet18_Weights.DEFAULT` to get the most up-to-date weights.\n  warnings.warn(msg)\n\n\n\nlearn.model.state_dict\n\n<bound method Module.state_dict of Sequential(\n  (0): Sequential(\n    (0): Conv2d(3, 64, kernel_size=(7, 7), stride=(2, 2), padding=(3, 3), bias=False)\n    (1): BatchNorm2d(64, eps=1e-05, momentum=0.1, affine=True, track_running_stats=True)\n    (2): ReLU(inplace=True)\n    (3): MaxPool2d(kernel_size=3, stride=2, padding=1, dilation=1, ceil_mode=False)\n    (4): Sequential(\n      (0): BasicBlock(\n        (conv1): Conv2d(64, 64, kernel_size=(3, 3), stride=(1, 1), padding=(1, 1), bias=False)\n        (bn1): BatchNorm2d(64, eps=1e-05, momentum=0.1, affine=True, track_running_stats=True)\n        (relu): ReLU(inplace=True)\n        (conv2): Conv2d(64, 64, kernel_size=(3, 3), stride=(1, 1), padding=(1, 1), bias=False)\n        (bn2): BatchNorm2d(64, eps=1e-05, momentum=0.1, affine=True, track_running_stats=True)\n      )\n      (1): BasicBlock(\n        (conv1): Conv2d(64, 64, kernel_size=(3, 3), stride=(1, 1), padding=(1, 1), bias=False)\n        (bn1): BatchNorm2d(64, eps=1e-05, momentum=0.1, affine=True, track_running_stats=True)\n        (relu): ReLU(inplace=True)\n        (conv2): Conv2d(64, 64, kernel_size=(3, 3), stride=(1, 1), padding=(1, 1), bias=False)\n        (bn2): BatchNorm2d(64, eps=1e-05, momentum=0.1, affine=True, track_running_stats=True)\n      )\n    )\n    (5): Sequential(\n      (0): BasicBlock(\n        (conv1): Conv2d(64, 128, kernel_size=(3, 3), stride=(2, 2), padding=(1, 1), bias=False)\n        (bn1): BatchNorm2d(128, eps=1e-05, momentum=0.1, affine=True, track_running_stats=True)\n        (relu): ReLU(inplace=True)\n        (conv2): Conv2d(128, 128, kernel_size=(3, 3), stride=(1, 1), padding=(1, 1), bias=False)\n        (bn2): BatchNorm2d(128, eps=1e-05, momentum=0.1, affine=True, track_running_stats=True)\n        (downsample): Sequential(\n          (0): Conv2d(64, 128, kernel_size=(1, 1), stride=(2, 2), bias=False)\n          (1): BatchNorm2d(128, eps=1e-05, momentum=0.1, affine=True, track_running_stats=True)\n        )\n      )\n      (1): BasicBlock(\n        (conv1): Conv2d(128, 128, kernel_size=(3, 3), stride=(1, 1), padding=(1, 1), bias=False)\n        (bn1): BatchNorm2d(128, eps=1e-05, momentum=0.1, affine=True, track_running_stats=True)\n        (relu): ReLU(inplace=True)\n        (conv2): Conv2d(128, 128, kernel_size=(3, 3), stride=(1, 1), padding=(1, 1), bias=False)\n        (bn2): BatchNorm2d(128, eps=1e-05, momentum=0.1, affine=True, track_running_stats=True)\n      )\n    )\n    (6): Sequential(\n      (0): BasicBlock(\n        (conv1): Conv2d(128, 256, kernel_size=(3, 3), stride=(2, 2), padding=(1, 1), bias=False)\n        (bn1): BatchNorm2d(256, eps=1e-05, momentum=0.1, affine=True, track_running_stats=True)\n        (relu): ReLU(inplace=True)\n        (conv2): Conv2d(256, 256, kernel_size=(3, 3), stride=(1, 1), padding=(1, 1), bias=False)\n        (bn2): BatchNorm2d(256, eps=1e-05, momentum=0.1, affine=True, track_running_stats=True)\n        (downsample): Sequential(\n          (0): Conv2d(128, 256, kernel_size=(1, 1), stride=(2, 2), bias=False)\n          (1): BatchNorm2d(256, eps=1e-05, momentum=0.1, affine=True, track_running_stats=True)\n        )\n      )\n      (1): BasicBlock(\n        (conv1): Conv2d(256, 256, kernel_size=(3, 3), stride=(1, 1), padding=(1, 1), bias=False)\n        (bn1): BatchNorm2d(256, eps=1e-05, momentum=0.1, affine=True, track_running_stats=True)\n        (relu): ReLU(inplace=True)\n        (conv2): Conv2d(256, 256, kernel_size=(3, 3), stride=(1, 1), padding=(1, 1), bias=False)\n        (bn2): BatchNorm2d(256, eps=1e-05, momentum=0.1, affine=True, track_running_stats=True)\n      )\n    )\n    (7): Sequential(\n      (0): BasicBlock(\n        (conv1): Conv2d(256, 512, kernel_size=(3, 3), stride=(2, 2), padding=(1, 1), bias=False)\n        (bn1): BatchNorm2d(512, eps=1e-05, momentum=0.1, affine=True, track_running_stats=True)\n        (relu): ReLU(inplace=True)\n        (conv2): Conv2d(512, 512, kernel_size=(3, 3), stride=(1, 1), padding=(1, 1), bias=False)\n        (bn2): BatchNorm2d(512, eps=1e-05, momentum=0.1, affine=True, track_running_stats=True)\n        (downsample): Sequential(\n          (0): Conv2d(256, 512, kernel_size=(1, 1), stride=(2, 2), bias=False)\n          (1): BatchNorm2d(512, eps=1e-05, momentum=0.1, affine=True, track_running_stats=True)\n        )\n      )\n      (1): BasicBlock(\n        (conv1): Conv2d(512, 512, kernel_size=(3, 3), stride=(1, 1), padding=(1, 1), bias=False)\n        (bn1): BatchNorm2d(512, eps=1e-05, momentum=0.1, affine=True, track_running_stats=True)\n        (relu): ReLU(inplace=True)\n        (conv2): Conv2d(512, 512, kernel_size=(3, 3), stride=(1, 1), padding=(1, 1), bias=False)\n        (bn2): BatchNorm2d(512, eps=1e-05, momentum=0.1, affine=True, track_running_stats=True)\n      )\n    )\n  )\n  (1): Sequential(\n    (0): AdaptiveConcatPool2d(\n      (ap): AdaptiveAvgPool2d(output_size=1)\n      (mp): AdaptiveMaxPool2d(output_size=1)\n    )\n    (1): fastai.layers.Flatten(full=False)\n    (2): BatchNorm1d(1024, eps=1e-05, momentum=0.1, affine=True, track_running_stats=True)\n    (3): Dropout(p=0.25, inplace=False)\n    (4): Linear(in_features=1024, out_features=512, bias=False)\n    (5): ReLU(inplace=True)\n    (6): BatchNorm1d(512, eps=1e-05, momentum=0.1, affine=True, track_running_stats=True)\n    (7): Dropout(p=0.5, inplace=False)\n    (8): Linear(in_features=512, out_features=2, bias=False)\n    (9): fastai.layers.SigmoidRange(low=-1, high=1)\n  )\n)>\n\n\nYup, there it is as a last layer.\nFastAI decided on a loss function:\n\ndls.loss_func\n\nFlattenedLoss of MSELoss()\n\n\nthis makes sense, we are looking for L2 distance from the target.\nLet’s take a look at learning rate finder:\n\nlearn.lr_find()\n\nSuggestedLRs(valley=0.001202264451
…
